Model: "sequential"
_________________________________________________________________
Layer (type)                 Output Shape              Param #   
=================================================================
embedding (Embedding)        (None, 300, 75)           426225    
_________________________________________________________________
conv1d (Conv1D)              (None, 296, 30)           11280     
_________________________________________________________________
global_max_pooling1d (Global (None, 30)                0         
_________________________________________________________________
dense (Dense)                (None, 30)                930       
_________________________________________________________________
dense_1 (Dense)              (None, 5)                 155       
=================================================================
Total params: 438,590
Trainable params: 438,590
Non-trainable params: 0
_________________________________________________________________


,loss,acc,val_loss,val_acc
0,0.5239759683609009,0.8469123244285583,0.3168094754219055,0.8882810473442078
1,0.2659268081188202,0.9011436104774475,0.27943554520606995,0.895767331123352
…
