Model: "sequential"
_________________________________________________________________
Layer (type)                 Output Shape              Param #   
=================================================================
embedding (Embedding)        (None, 300, 75)           426225    
_________________________________________________________________
conv1d (Conv1D)              (None, 296, 50)           18800     
_________________________________________________________________
global_max_pooling1d (Global (None, 50)                0         
_________________________________________________________________
dense (Dense)                (None, 50)                2550      
_________________________________________________________________
dense_1 (Dense)              (None, 5)                 255       
=================================================================
Total params: 447,830
Trainable params: 447,830
Non-trainable params: 0
_________________________________________________________________


,loss,acc,val_loss,val_acc
0,0.4269803762435913,0.871867835521698,0.261181503534317,0.9021019339561462
1,0.22147688269615173,0.9158322811126709,0.21693500876426697,0.9176504611968994
…
