Model: "sequential"
_________________________________________________________________
Layer (type)                 Output Shape              Param #   
=================================================================
embedding (Embedding)        (None, 300, 40)           227320    
_________________________________________________________________
conv1d (Conv1D)              (None, 296, 40)           8040      
_________________________________________________________________
bidirectional (Bidirectional (None, 296, 80)           25920     
_________________________________________________________________
global_max_pooling1d (Global (None, 80)                0         
_________________________________________________________________
dense (Dense)                (None, 40)                3240      
_________________________________________________________________
dense_1 (Dense)              (None, 5)                 205       
=================================================================
Total params: 264,725
Trainable params: 264,725
Non-trainable params: 0
_________________________________________________________________


,loss,acc,val_loss,val_acc
0,0.5149157047271729,0.8558576703071594,0.40222543478012085,0.8623668551445007
1,0.32893186807632446,0.8871156573295593,0.33126989006996155,0.8879930973052979
…
