Model: "sequential"
_________________________________________________________________
Layer (type)                 Output Shape              Param #   
=================================================================
embedding (Embedding)        (None, 300, 100)          568300    
_________________________________________________________________
conv1d (Conv1D)              (None, 296, 40)           20040     
_________________________________________________________________
global_max_pooling1d (Global (None, 40)                0         
_________________________________________________________________
dense (Dense)                (None, 40)                1640      
_________________________________________________________________
dense_1 (Dense)              (None, 5)                 205       
=================================================================
Total params: 590,185
Trainable params: 590,185
Non-trainable params: 0
_________________________________________________________________


,loss,acc,val_loss,val_acc
0,0.40988045930862427,0.8723253011703491,0.2543492019176483,0.913619339466095
1,0.2202063798904419,0.9164421558380127,0.2277590036392212,0.9159228205680847
…
