Model: "sequential"
_________________________________________________________________
Layer (type)                 Output Shape              Param #   
=================================================================
embedding (Embedding)        (None, 100, 50)           261400    
_________________________________________________________________
conv1d (Conv1D)              (None, 96, 128)           32128     
_________________________________________________________________
global_max_pooling1d (Global (None, 128)               0         
_________________________________________________________________
dense (Dense)                (None, 10)                1290      
_________________________________________________________________
dense_1 (Dense)              (None, 5)                 55        
=================================================================
Total params: 294,873
Trainable params: 294,873
Non-trainable params: 0
_________________________________________________________________


,loss,acc,val_loss,val_acc
0,0.6807578206062317,0.8137230277061462,0.5581650137901306,0.8566080927848816
1,0.5391992330551147,0.853011429309845,0.5226415991783142,0.8574719429016113
2,0.505472719669342,0.8539771437644958,0.4972415864467621,0.8557443022727966
…
