Model: "sequential"
_________________________________________________________________
Layer (type)                 Output Shape              Param #   
=================================================================
embedding (Embedding)        (None, 300, 50)           284150    
_________________________________________________________________
conv1d (Conv1D)              (None, 296, 128)          32128     
_________________________________________________________________
global_max_pooling1d (Global (None, 128)               0         
_________________________________________________________________
dense (Dense)                (None, 10)                1290      
_________________________________________________________________
dense_1 (Dense)              (None, 5)                 55        
=================================================================
Total params: 317,623
Trainable params: 317,623
Non-trainable params: 0
_________________________________________________________________


,loss,acc,val_loss,val_acc
0,0.5320760607719421,0.7903430461883545,0.33495503664016724,0.8756118416786194
1,0.2694590389728546,0.8990088701248169,0.24434173107147217,0.9072847962379456
2,0.19288311898708344,0.9248793125152588,0.22508493065834045,0.9164987206459045
…
