Model: "sequential"
_________________________________________________________________
Layer (type)                 Output Shape              Param #   
=================================================================
embedding (Embedding)        (None, 300, 75)           426225    
_________________________________________________________________
conv1d (Conv1D)              (None, 296, 40)           15040     
_________________________________________________________________
bidirectional (Bidirectional (None, 296, 80)           25920     
_________________________________________________________________
global_max_pooling1d (Global (None, 80)                0         
_________________________________________________________________
dense (Dense)                (None, 40)                3240      
_________________________________________________________________
dense_1 (Dense)              (None, 5)                 205       
=================================================================
Total params: 470,630
Trainable params: 470,630
Non-trainable params: 0
_________________________________________________________________


,loss,acc,val_loss,val_acc
0,0.46338704228401184,0.8674615621566772,0.4293009638786316,0.8573570251464844
1,0.23450535535812378,0.9208139181137085,0.34250980615615845,0.8941957354545593
…
