Model: "sequential"
_________________________________________________________________
Layer (type)                 Output Shape              Param #   
=================================================================
embedding (Embedding)        (None, 300, 30)           170490    
_________________________________________________________________
conv1d (Conv1D)              (None, 296, 40)           6040      
_________________________________________________________________
global_max_pooling1d (Global (None, 40)                0         
_________________________________________________________________
dense (Dense)                (None, 40)                1640      
_________________________________________________________________
dense_1 (Dense)              (None, 5)                 205       
=================================================================
Total params: 178,375
Trainable params: 178,375
Non-trainable params: 0
_________________________________________________________________


,loss,acc,val_loss,val_acc
0,0.4868648648262024,0.8615502119064331,0.323271781206131,0.8836740851402283
1,0.2520067095756531,0.9077001214027405,0.26101431250572205,0.9015260338783264
…
