Model: "sequential"
_________________________________________________________________
Layer (type)                 Output Shape              Param #   
=================================================================
embedding (Embedding)        (None, 300, 40)           227320    
_________________________________________________________________
conv1d (Conv1D)              (None, 296, 40)           8040      
_________________________________________________________________
bidirectional (Bidirectional (None, 296, 80)           25920     
_________________________________________________________________
bidirectional_1 (Bidirection (None, 296, 80)           38720     
_________________________________________________________________
bidirectional_2 (Bidirection (None, 296, 80)           38720     
_________________________________________________________________
global_max_pooling1d (Global (None, 80)                0         
_________________________________________________________________
dense (Dense)                (None, 40)                3240      
_________________________________________________________________
dense_1 (Dense)              (None, 5)                 205       
=================================================================
Total params: 342,165
Trainable params: 342,165
Non-trainable params: 0
_________________________________________________________________


,loss,acc,val_loss,val_acc
0,0.5483949780464172,0.8515883088111877,0.43752503395080566,0.8603512644767761
1,0.37661245465278625,0.8712071180343628,0.3511025607585907,0.861503005027771
…
