Model: "sequential"
_________________________________________________________________
Layer (type)                 Output Shape              Param #   
=================================================================
embedding (Embedding)        (None, 300, 40)           227320    
_________________________________________________________________
conv1d (Conv1D)              (None, 296, 40)           8040      
_________________________________________________________________
global_max_pooling1d (Global (None, 40)                0         
_________________________________________________________________
dense (Dense)                (None, 40)                1640      
_________________________________________________________________
dense_1 (Dense)              (None, 5)                 205       
=================================================================
Total params: 237,205
Trainable params: 237,205
Non-trainable params: 0
_________________________________________________________________


,loss,acc,val_loss,val_acc
0,0.46785300970077515,0.8670902252197266,0.287526398897171,0.9029657244682312
1,0.2427590936422348,0.9099872708320618,0.25820088386535645,0.9081485867500305
…
