Model: "sequential"
_________________________________________________________________
Layer (type)                 Output Shape              Param #   
=================================================================
embedding (Embedding)        (None, 300, 75)           426225    
_________________________________________________________________
conv1d (Conv1D)              (None, 296, 30)           11280     
_________________________________________________________________
bidirectional (Bidirectional (None, 296, 60)           14640     
_________________________________________________________________
global_max_pooling1d (Global (None, 60)                0         
_________________________________________________________________
dense (Dense)                (None, 30)                1830      
_________________________________________________________________
dense_1 (Dense)              (None, 5)                 155       
=================================================================
Total params: 454,130
Trainable params: 454,130
Non-trainable params: 0
_________________________________________________________________


,loss,acc,val_loss,val_acc
0,0.5209044814109802,0.8546887040138245,0.3779867887496948,0.8741722106933594
1,0.3143698275089264,0.8922490477561951,0.28148674964904785,0.9041174650192261
…
