Model: "sequential"
_________________________________________________________________
Layer (type)                 Output Shape              Param #   
=================================================================
embedding (Embedding)        (None, 300, 75)           426225    
_________________________________________________________________
conv1d (Conv1D)              (None, 296, 40)           15040     
_________________________________________________________________
global_max_pooling1d (Global (None, 40)                0         
_________________________________________________________________
dense (Dense)                (None, 5)                 205       
_________________________________________________________________
softmax (Softmax)            (None, 5)                 0         
=================================================================
Total params: 441,470
Trainable params: 441,470
Non-trainable params: 0
_________________________________________________________________


,loss,acc,val_loss,val_acc
0,1.609460711479187,0.8505718111991882,1.609438180923462,0.8496976494789124
1,1.3855851888656616,0.8500635027885437,0.504531741142273,0.8496976494789124
…
