Model: "sequential"
_________________________________________________________________
Layer (type)                 Output Shape              Param #   
=================================================================
embedding (Embedding)        (None, 300, 50)           284150    
_________________________________________________________________
conv1d (Conv1D)              (None, 296, 40)           10040     
_________________________________________________________________
global_max_pooling1d (Global (None, 40)                0         
_________________________________________________________________
dense (Dense)                (None, 40)                1640      
_________________________________________________________________
dense_1 (Dense)              (None, 5)                 205       
=================================================================
Total params: 296,035
Trainable params: 296,035
Non-trainable params: 0
_________________________________________________________________


,loss,acc,val_loss,val_acc
0,0.4393964409828186,0.8696315288543701,0.2871021032333374,0.8897206783294678
1,0.24122662842273712,0.9082592129707336,0.2536998987197876,0.8992225527763367
…
