Model: "sequential"
_________________________________________________________________
Layer (type)                 Output Shape              Param #   
=================================================================
embedding (Embedding)        (None, 300, 40)           227320    
_________________________________________________________________
conv1d (Conv1D)              (None, 296, 40)           8040      
_________________________________________________________________
bidirectional (Bidirectional (None, 296, 80)           25920     
_________________________________________________________________
bidirectional_1 (Bidirection (None, 296, 80)           38720     
_________________________________________________________________
global_max_pooling1d (Global (None, 80)                0         
_________________________________________________________________
dense (Dense)                (None, 40)                3240      
_________________________________________________________________
dense_1 (Dense)              (None, 5)                 205       
=================================================================
Total params: 303,445
Trainable params: 303,445
Non-trainable params: 0
_________________________________________________________________


,loss,acc,val_loss,val_acc
0,0.5310426354408264,0.8543837070465088,0.43257278203964233,0.8617909550666809
1,0.3723233640193939,0.8722236156463623,0.3816048502922058,0.8663979172706604
…
