Model: "sequential"
_________________________________________________________________
Layer (type)                 Output Shape              Param #   
=================================================================
embedding (Embedding)        (None, 300, 75)           426225    
_________________________________________________________________
conv1d (Conv1D)              (None, 296, 75)           28200     
_________________________________________________________________
global_max_pooling1d (Global (None, 75)                0         
_________________________________________________________________
dense (Dense)                (None, 75)                5700      
_________________________________________________________________
dense_1 (Dense)              (None, 5)                 380       
=================================================================
Total params: 460,505
Trainable params: 460,505
Non-trainable params: 0
_________________________________________________________________


,loss,acc,val_loss,val_acc
0,0.4243358373641968,0.8684625029563904,0.26691725850105286,0.9055571556091309
1,0.21217156946659088,0.9213722944259644,0.21855343878269196,0.9231212139129639
…
