Model: "sequential"
_________________________________________________________________
Layer (type)                 Output Shape              Param #   
=================================================================
embedding (Embedding)        (None, 300, 75)           426225    
_________________________________________________________________
conv1d (Conv1D)              (None, 296, 50)           18800     
_________________________________________________________________
global_max_pooling1d (Global (None, 50)                0         
_________________________________________________________________
dense (Dense)                (None, 50)                2550      
_________________________________________________________________
dense_1 (Dense)              (None, 5)                 255       
=================================================================
Total params: 447,830
Trainable params: 447,830
Non-trainable params: 0
_________________________________________________________________


,loss,acc,val_loss,val_acc
0,0.45462432503700256,0.8634815812110901,0.2675444483757019,0.9015260338783264
1,0.24496088922023773,0.9118678569793701,0.22220630943775177,0.9101641178131104
…
