Model: "sequential"
_________________________________________________________________
Layer (type)                 Output Shape              Param #   
=================================================================
embedding (Embedding)        (None, 300, 40)           227320    
_________________________________________________________________
conv1d (Conv1D)              (None, 296, 40)           8040      
_________________________________________________________________
bidirectional (Bidirectional (None, 296, 80)           25920     
_________________________________________________________________
global_max_pooling1d (Global (None, 80)                0         
_________________________________________________________________
dense (Dense)                (None, 40)                3240      
_________________________________________________________________
dense_1 (Dense)              (None, 5)                 205       
=================================================================
Total params: 264,725
Trainable params: 264,725
Non-trainable params: 0
_________________________________________________________________


,loss,acc,val_loss,val_acc
0,0.5262356400489807,0.8551969528198242,0.3997844457626343,0.8638064861297607
1,0.35889002680778503,0.8732909560203552,0.3300655484199524,0.8885689377784729
2,0.27698254585266113,0.9002795219421387,0.27145618200302124,0.9055571556091309
…
