Model: "sequential"
_________________________________________________________________
Layer (type)                 Output Shape              Param #   
=================================================================
embedding (Embedding)        (None, 300, 50)           284150    
_________________________________________________________________
conv1d (Conv1D)              (None, 296, 128)          32128     
_________________________________________________________________
global_max_pooling1d (Global (None, 128)               0         
_________________________________________________________________
dense (Dense)                (None, 10)                1290      
_________________________________________________________________
dense_1 (Dense)              (None, 5)                 55        
=================================================================
Total params: 317,623
Trainable params: 317,623
Non-trainable params: 0
_________________________________________________________________


,loss,acc,val_loss,val_acc
0,0.4623130261898041,0.8378145098686218,0.28037965297698975,0.8949035406112671
1,0.2337580919265747,0.9130876660346985,0.22227531671524048,0.9141952395439148
2,0.17478230595588684,0.932858943939209,0.19739288091659546,0.9245609045028687
…
