Model: "sequential"
_________________________________________________________________
Layer (type)                 Output Shape              Param #   
=================================================================
embedding (Embedding)        (None, 100, 75)           392100    
_________________________________________________________________
conv1d (Conv1D)              (None, 96, 40)            15040     
_________________________________________________________________
global_max_pooling1d (Global (None, 40)                0         
_________________________________________________________________
dense (Dense)                (None, 40)                1640      
_________________________________________________________________
dense_1 (Dense)              (None, 5)                 205       
=================================================================
Total params: 408,985
Trainable params: 408,985
Non-trainable params: 0
_________________________________________________________________


,loss,acc,val_loss,val_acc
0,0.42090898752212524,0.875756025314331,0.34639665484428406,0.8755621910095215
1,0.17591676115989685,0.9374892115592957,0.3292425870895386,0.8852002620697021
…
