Model: "sequential"
_________________________________________________________________
Layer (type)                 Output Shape              Param #   
=================================================================
embedding (Embedding)        (None, 300, 75)           426225    
_________________________________________________________________
conv1d (Conv1D)              (None, 296, 100)          37600     
_________________________________________________________________
global_max_pooling1d (Global (None, 100)               0         
_________________________________________________________________
dense (Dense)                (None, 100)               10100     
_________________________________________________________________
dense_1 (Dense)              (None, 5)                 505       
=================================================================
Total params: 474,430
Trainable params: 474,430
Non-trainable params: 0
_________________________________________________________________


,loss,acc,val_loss,val_acc
0,0.40857481956481934,0.8746124505996704,0.24767956137657166,0.9046933650970459
1,0.20890066027641296,0.9206607341766357,0.21967679262161255,0.9199539422988892
…
