Model: "sequential"
_________________________________________________________________
Layer (type)                 Output Shape              Param #   
=================================================================
embedding (Embedding)        (None, 100, 50)           483750    
_________________________________________________________________
bidirectional (Bidirectional (None, 100, 256)          183296    
_________________________________________________________________
bidirectional_1 (Bidirection (None, 100, 256)          394240    
_________________________________________________________________
time_distributed (TimeDistri (None, 100, 128)          32896     
_________________________________________________________________
dense_1 (Dense)              (None, 100, 10)           1290      
_________________________________________________________________
crf (CRF)                    (None, 100, 10)           100       
=================================================================
Total params: 1,095,572
Trainable params: 1,095,572
Non-trainable params: 0
_________________________________________________________________


,loss,viterbi_accuracy,val_loss,val_viterbi_accuracy
0,36.058414459228516,0.46591708064079285,112.88297271728516,0.9735098481178284
1,29.640846252441406,0.9801585674285889,91.66790771484375,0.971403956413269
…
