Model: "sequential"
_________________________________________________________________
Layer (type)                 Output Shape              Param #   
=================================================================
embedding (Embedding)        (None, 100, 40)           387000    
_________________________________________________________________
bidirectional (Bidirectional (None, 100, 100)          36400     
_________________________________________________________________
bidirectional_1 (Bidirection (None, 100, 100)          60400     
_________________________________________________________________
bidirectional_2 (Bidirection (None, 100, 100)          60400     
_________________________________________________________________
dense (Dense)                (None, 100, 10)           1010      
_________________________________________________________________
crf (CRF)                    (None, 100, 10)           100       
=================================================================
Total params: 545,310
Trainable params: 545,310
Non-trainable params: 0
_________________________________________________________________


,loss,viterbi_accuracy,val_loss,val_viterbi_accuracy
0,37.415283203125,0.3398487865924835,112.6050033569336,0.9562807679176331
1,32.058841705322266,0.967285692691803,90.20954132080078,0.9756157398223877
…
