Model: "sequential"
_________________________________________________________________
Layer (type)                 Output Shape              Param #   
=================================================================
embedding (Embedding)        (None, 100, 30)           290250    
_________________________________________________________________
bidirectional (Bidirectional (None, 100, 80)           22720     
_________________________________________________________________
bidirectional_1 (Bidirection (None, 100, 80)           38720     
_________________________________________________________________
bidirectional_2 (Bidirection (None, 100, 80)           38720     
_________________________________________________________________
dense (Dense)                (None, 100, 10)           810       
_________________________________________________________________
crf (CRF)                    (None, 100, 10)           100       
=================================================================
Total params: 391,320
Trainable params: 391,320
Non-trainable params: 0
_________________________________________________________________


,loss,viterbi_accuracy,val_loss,val_viterbi_accuracy
0,45.59122848510742,0.3721407353878021,216.13943481445312,0.2718842327594757
1,39.85324478149414,0.3883720934391022,192.26707458496094,0.39224138855934143
…
