Model: "sequential"
_________________________________________________________________
Layer (type)                 Output Shape              Param #   
=================================================================
embedding (Embedding)        (None, 100, 30)           290250    
_________________________________________________________________
bidirectional (Bidirectional (None, 100, 80)           22720     
_________________________________________________________________
bidirectional_1 (Bidirection (None, 100, 80)           38720     
_________________________________________________________________
bidirectional_2 (Bidirection (None, 100, 80)           38720     
_________________________________________________________________
dense (Dense)                (None, 100, 10)           810       
_________________________________________________________________
crf (CRF)                    (None, 100, 10)           100       
=================================================================
Total params: 391,320
Trainable params: 391,320
Non-trainable params: 0
_________________________________________________________________


,loss,viterbi_accuracy,val_loss,val_viterbi_accuracy
0,50.47502899169922,0.19480526447296143,248.75965881347656,0.1872536987066269
1,45.141944885253906,0.19698596000671387,226.46652221679688,0.1872536987066269
…
