Model: "sequential"
_________________________________________________________________
Layer (type)                 Output Shape              Param #   
=================================================================
embedding (Embedding)        (None, 100, 40)           387000    
_________________________________________________________________
bidirectional (Bidirectional (None, 100, 80)           25920     
_________________________________________________________________
bidirectional_1 (Bidirection (None, 100, 80)           38720     
_________________________________________________________________
bidirectional_2 (Bidirection (None, 100, 80)           38720     
_________________________________________________________________
dense (Dense)                (None, 100, 10)           810       
_________________________________________________________________
crf (CRF)                    (None, 100, 10)           100       
=================================================================
Total params: 491,270
Trainable params: 491,270
Non-trainable params: 0
_________________________________________________________________


,loss,viterbi_accuracy,val_loss,val_viterbi_accuracy
0,42.99272155761719,0.31184738874435425,204.8215789794922,0.3221674859523773
1,37.58694839477539,0.32229775190353394,181.44058227539062,0.32475370168685913
…
